…
D_NOISE': 1.0, 'TRAINING_OBJ': 'noise_pred', 'LOSS_TYPE': 'l2', 'TIME_EMBED': 'sigma', 'COND_EMBED': 'id', 'SHOWER_EMBED': 'orig-NN', 'CHECKPOINT_NAME': 'dataset1_phot'}
Event start, stop:  0 None
dset 11
Data Shape (121000, 368)


 Model: 

=========================================================================================================
Layer (type:depth-idx)                                  Output Shape              Param #
=========================================================================================================
CondUnet                                                [1, 1, 5, 10, 30]         --
├─CylindricalConv: 1-1                                  [1, 16, 5, 10, 30]        --
│    └─Conv3d: 2-1                                      [1, 16, 5, 10, 30]        1,744
├─Sequential: 1-2                                       [1, 64]                   --
│    └─Unflatten: 2-2                                   [1, 1]                    --
│    └─Linear: 2-3                                      [1, 32]                   64
│    └─GELU: 2-4                                        [1, 32]                   --
│    └─Linear: 2-5                                      [1, 64]                   2,112
│    └─GELU: 2-6                                        [1, 64]                   --
│    └─Linear: 2-7                                      [1, 64]                   4,160
├─Sequential: 1-3                                       [1, 64]                   --
│    └─Unflatten: 2-8                                   [1, 1]                    --
│    └─Linear: 2-9                                      [1, 32]                   64
│    └─GELU: 2-10                                       [1, 32]                   --
│    └─Linear: 2-11                                     [1, 64]                   2,112
│    └─GELU: 2-12                                       [1, 64]                   --
│    └─Linear: 2-13                                     [1, 64]                   4,160
├─ModuleList: 1-10                                      --                        (recursive)
│    └─ModuleList: 2-16                                 --                        (recursive)
│    │    └─ResnetBlock: 3-1                            [1, 16, 5, 10, 30]        15,984
│    │    └─ResnetBlock: 3-2                            [1, 16, 5, 10, 30]        15,984
├─ModuleList: 1-9                                       --                        (recursive)
│    └─Residual: 2-15                                   [1, 16, 5, 10, 30]        --
│    │    └─PreNorm: 3-3                                [1, 16, 5, 10, 30]        2,128
├─ModuleList: 1-10                                      --                        (recursive)
│    └─ModuleList: 2-16                                 --                        (recursive)
│    │    └─CylindricalConv: 3-4                        [1, 16, 3, 5, 15]         12,304
│    └─ModuleList: 2-19                                 --                        (recursive)
│    │    └─ResnetBlock: 3-5                            [1, 16, 3, 5, 15]         15,984
│    │    └─ResnetBlock: 3-6                            [1, 16, 3, 5, 15]         15,984
├─ModuleList: 1-9                                       --                        (recursive)
│    └─Residual: 2-18                                   [1, 16, 3, 5, 15]         --
│    │    └─PreNorm: 3-7                                [1, 16, 3, 5, 15]         2,128
├─ModuleList: 1-10                                      --                        (recursive)
│    └─ModuleList: 2-19                                 --                        (recursive)
│    │    └─CylindricalConv: 3-8                        [1, 16, 2, 2, 7]          12,304
│    └─ModuleList: 2-22                                 --                        (recursive)
│    │    └─ResnetBlock: 3-9                            [1, 32, 2, 2, 7]          46,336
│    │    └─ResnetBlock: 3-10                           [1, 32, 2, 2, 7]          59,616
├─ModuleList: 1-9                                       --                        (recursive)
│    └─Residual: 2-21                                   [1, 32, 2, 2, 7]          --
│    │    └─PreNorm: 3-11                               [1, 32, 2, 2, 7]          4,256
├─ModuleList: 1-10                                      --                        (recursive)
│    └─ModuleList: 2-22                                 --                        (recursive)
│    │    └─Identity: 3-12                              [1, 32, 2, 2, 7]          --
├─ResnetBlock: 1-11                                     [1, 32, 2, 2, 7]          --
│    └─Block: 2-23                                      [1, 32, 2, 2, 7]          --
│    │    └─CylindricalConv: 3-13                       [1, 32, 2, 2, 7]          27,680
│    │    └─GroupNorm: 3-14                             [1, 32, 2, 2, 7]          64
│    │    └─SiLU: 3-15                                  [1, 32, 2, 2, 7]          --
│    └─Sequential: 2-24                                 [1, 32]                   --
│    │    └─SiLU: 3-16                                  [1, 128]                  --
│    │    └─Linear: 3-17                                [1, 32]                   4,128
│    └─Block: 2-25                                      [1, 32, 2, 2, 7]          --
│    │    └─CylindricalConv: 3-18                       [1, 32, 2, 2, 7]          27,680
│    │    └─GroupNorm: 3-19                             [1, 32, 2, 2, 7]          64
│    │    └─SiLU: 3-20                                  [1, 32, 2, 2, 7]          --
│    └─Identity: 2-26                                   [1, 32, 2, 2, 7]          --
├─Residual: 1-12                                        [1, 32, 2, 2, 7]          --
│    └─PreNorm: 2-27                                    [1, 32, 2, 2, 7]          --
│    │    └─GroupNorm: 3-21                             [1, 32, 2, 2, 7]          64
│    │    └─LinearAttention: 3-22                       [1, 32, 2, 2, 7]          4,192
├─ResnetBlock: 1-13                                     [1, 32, 2, 2, 7]          --
│    └─Block: 2-28                                      [1, 32, 2, 2, 7]          --
│    │    └─CylindricalConv: 3-23                       [1, 32, 2, 2, 7]          27,680
│    │    └─GroupNorm: 3-24                             [1, 32, 2, 2, 7]          64
│    │    └─SiLU: 3-25                                  [1, 32, 2, 2, 7]          --
│    └─Sequential: 2-29                                 [1, 32]                   --
│    │    └─SiLU: 3-26                                  [1, 128]                  --
│    │    └─Linear: 3-27                                [1, 32]                   4,128
│    └─Block: 2-30                                      [1, 32, 2, 2, 7]          --
│    │    └─CylindricalConv: 3-28                       [1, 32, 2, 2, 7]          27,680
│    │    └─GroupNorm: 3-29                             [1, 32, 2, 2, 7]          64
│    │    └─SiLU: 3-30                                  [1, 32, 2, 2, 7]          --
│    └─Identity: 2-31                                   [1, 32, 2, 2, 7]          --
├─ModuleList: 1-20                                      --                        (recursive)
│    └─ModuleList: 2-34                                 --                        (recursive)
│    │    └─ResnetBlock: 3-31                           [1, 16, 2, 2, 7]          37,760
│    │    └─ResnetBlock: 3-32                           [1, 16, 2, 2, 7]          15,984
├─ModuleList: 1-19                                      --                        (recursive)
│    └─Residual: 2-33                                   [1, 16, 2, 2, 7]          --
│    │    └─PreNorm: 3-33                               [1, 16, 2, 2, 7]          2,128
├─ModuleList: 1-20                                      --                        (recursive)
│    └─ModuleList: 2-34                                 --                        (recursive)
│    │    └─CylindricalConvTrans: 3-34                  [1, 16, 3, 5, 15]         12,304
│    └─ModuleList: 2-37                                 --                        (recursive)
│    │    └─ResnetBlock: 3-35                           [1, 16, 3, 5, 15]         23,424
│    │    └─ResnetBlock: 3-36                           [1, 16, 3, 5, 15]         15,984
├─ModuleList: 1-19                                      --                        (recursive)
│    └─Residual: 2-36                                   [1, 16, 3, 5, 15]         --
│    │    └─PreNorm: 3-37                               [1, 16, 3, 5, 15]         2,128
├─ModuleList: 1-20                                      --                        (recursive)
│    └─ModuleList: 2-37                                 --                        (recursive)
│    │    └─CylindricalConvTrans: 3-38                  [1, 16, 5, 10, 30]        12,304
│    └─ModuleList: 2-40                                 --                        (recursive)
│    │    └─ResnetBlock: 3-39                           [1, 16, 5, 10, 30]        23,424
│    │    └─ResnetBlock: 3-40                           [1, 16, 5, 10, 30]        15,984
├─ModuleList: 1-19                                      --                        (recursive)
│    └─Residual: 2-39                                   [1, 16, 5, 10, 30]        --
│    │    └─PreNorm: 3-41                               [1, 16, 5, 10, 30]        2,128
├─ModuleList: 1-20                                      --                        (recursive)
│    └─ModuleList: 2-40                                 --                        (recursive)
│    │    └─Identity: 3-42                              [1, 16, 5, 10, 30]        --
├─Sequential: 1-21                                      [1, 1, 5, 10, 30]         --
│    └─ResnetBlock: 2-41                                [1, 16, 5, 10, 30]        --
│    │    └─Block: 3-43                                 [1, 16, 5, 10, 30]        6,960
│    │    └─Block: 3-44                                 [1, 16, 5, 10, 30]        6,960
│    │    └─Identity: 3-45                              [1, 16, 5, 10, 30]        --
│    └─CylindricalConv: 2-42                            [1, 1, 5, 10, 30]         --
│    │    └─Conv3d: 3-46                                [1, 1, 5, 10, 30]         17
=========================================================================================================
Total params: 518,401
Trainable params: 518,401
Non-trainable params: 0
Total mult-adds (M): 170.88
=========================================================================================================
Input size (MB): 0.02
Forward/backward pass size (MB): 9.23
Params size (MB): 2.07
Estimated Total Size (MB): 11.33
…
